…
    FLIP: true
    MAX_SIZE: 4096
    MIN_SIZES:
    - 256
    - 384
    - 512
    - 640
    - 768
    - 896
    - 512
    - 768
    - 1024
    - 1280
    - 1536
    - 1792
  DETECTIONS_PER_IMAGE: 100
  EVAL_PERIOD: 10000
  EXPECTED_RESULTS: []
  KEYPOINT_OKS_SIGMAS: []
  PRECISE_BN:
    ENABLED: false
    NUM_ITER: 200
VERSION: 2
VIS_PERIOD: 0

[03/11 13:11:01 detectron2]: Full config saved to ./output/config.yaml
[03/11 13:11:01 d2.utils.env]: Using a generated random seed 1482469
torch.Size([448, 1024])
[03/11 13:11:36 d2.engine.defaults]: Model:
HRNet_W48_ARCH(
  (backbone): SnpResNet(
    (conv1): Conv2d(3, 64, kernel_size=(7, 7), stride=(2, 2), padding=(3, 3), bias=False)
    (bn1): ModuleList(
      (0-2): 3 x BatchNorm2d(64, eps=1e-05, momentum=0.1, affine=True, track_running_stats=True)
    )
    (relu): ReLU(inplace=True)
    (maxpool): MaxPool2d(kernel_size=3, stride=2, padding=1, dilation=1, ceil_mode=False)
    (layer1): Sequential(
      (0): BasicBlock(
        (conv1): Conv2d(64, 64, kernel_size=(3, 3), stride=(1, 1), padding=(1, 1), bias=False)
        (bn1): ModuleList(
          (0-2): 3 x BatchNorm2d(64, eps=1e-05, momentum=0.1, affine=True, track_running_stats=True)
        )
        (relu_inp): ReLU(inplace=True)
        (relu): ReLU()
        (conv2): Conv2d(64, 64, kernel_size=(3, 3), stride=(1, 1), padding=(1, 1), bias=False)
        (bn2): ModuleList(
          (0-2): 3 x BatchNorm2d(64, eps=1e-05, momentum=0.1, affine=True, track_running_stats=True)
        )
      )
      (1): BasicBlock(
        (conv1): Conv2d(64, 64, kernel_size=(3, 3), stride=(1, 1), padding=(1, 1), bias=False)
        (bn1): ModuleList(
          (0-2): 3 x BatchNorm2d(64, eps=1e-05, momentum=0.1, affine=True, track_running_stats=True)
        )
        (relu_inp): ReLU(inplace=True)
        (relu): ReLU()
        (conv2): Conv2d(64, 64, kernel_size=(3, 3), stride=(1, 1), padding=(1, 1), bias=False)
        (bn2): ModuleList(
          (0-2): 3 x BatchNorm2d(64, eps=1e-05, momentum=0.1, affine=True, track_running_stats=True)
        )
      )
    )
    (layer2): Sequential(
      (0): BasicBlock(
        (conv1): Conv2d(64, 128, kernel_size=(3, 3), stride=(2, 2), padding=(1, 1), bias=False)
        (bn1): ModuleList(
          (0-2): 3 x BatchNorm2d(128, eps=1e-05, momentum=0.1, affine=True, track_running_stats=True)
        )
        (relu_inp): ReLU(inplace=True)
        (relu): ReLU()
        (conv2): Conv2d(128, 128, kernel_size=(3, 3), stride=(1, 1), padding=(1, 1), bias=False)
        (bn2): ModuleList(
          (0-2): 3 x BatchNorm2d(128, eps=1e-05, momentum=0.1, affine=True, track_running_stats=True)
        )
        (downsample): Sequential(
          (0): Conv2d(64, 128, kernel_size=(1, 1), stride=(2, 2), bias=False)
          (1): BatchNorm2d(128, eps=1e-05, momentum=0.1, affine=True, track_running_stats=True)
        )
      )
      (1): BasicBlock(
        (conv1): Conv2d(128, 128, kernel_size=(3, 3), stride=(1, 1), padding=(1, 1), bias=False)
        (bn1): ModuleList(
          (0-2): 3 x BatchNorm2d(128, eps=1e-05, momentum=0.1, affine=True, track_running_stats=True)
        )
        (relu_inp): ReLU(inplace=True)
        (relu): ReLU()
        (conv2): Conv2d(128, 128, kernel_size=(3, 3), stride=(1, 1), padding=(1, 1), bias=False)
        (bn2): ModuleList(
          (0-2): 3 x BatchNorm2d(128, eps=1e-05, momentum=0.1, affine=True, track_running_stats=True)
        )
      )
    )
    (layer3): Sequential(
      (0): BasicBlock(
        (conv1): Conv2d(128, 256, kernel_size=(3, 3), stride=(2, 2), padding=(1, 1), bias=False)
        (bn1): ModuleList(
          (0-2): 3 x BatchNorm2d(256, eps=1e-05, momentum=0.1, affine=True, track_running_stats=True)
        )
        (relu_inp): ReLU(inplace=True)
        (relu): ReLU()
        (conv2): Conv2d(256, 256, kernel_size=(3, 3), stride=(1, 1), padding=(1, 1), bias=False)
        (bn2): ModuleList(
          (0-2): 3 x BatchNorm2d(256, eps=1e-05, momentum=0.1, affine=True, track_running_stats=True)
        )
        (downsample): Sequential(
          (0): Conv2d(128, 256, kernel_size=(1, 1), stride=(2, 2), bias=False)
          (1): BatchNorm2d(256, eps=1e-05, momentum=0.1, affine=True, track_running_stats=True)
        )
      )
      (1): BasicBlock(
        (conv1): Conv2d(256, 256, kernel_size=(3, 3), stride=(1, 1), padding=(1, 1), bias=False)
        (bn1): ModuleList(
          (0-2): 3 x BatchNorm2d(256, eps=1e-05, momentum=0.1, affine=True, track_running_stats=True)
        )
        (relu_inp): ReLU(inplace=True)
        (relu): ReLU()
        (conv2): Conv2d(256, 256, kernel_size=(3, 3), stride=(1, 1), padding=(1, 1), bias=False)
        (bn2): ModuleList(
          (0-2): 3 x BatchNorm2d(256, eps=1e-05, momentum=0.1, affine=True, track_running_stats=True)
        )
      )
    )
    (layer4): Sequential(
      (0): BasicBlock(
        (conv1): Conv2d(256, 512, kernel_size=(3, 3), stride=(2, 2), padding=(1, 1), bias=False)
        (bn1): ModuleList(
          (0-2): 3 x BatchNorm2d(512, eps=1e-05, momentum=0.1, affine=True, track_running_stats=True)
        )
        (relu_inp): ReLU(inplace=True)
        (relu): ReLU()
        (conv2): Conv2d(512, 512, kernel_size=(3, 3), stride=(1, 1), padding=(1, 1), bias=False)
        (bn2): ModuleList(
          (0-2): 3 x BatchNorm2d(512, eps=1e-05, momentum=0.1, affine=True, track_running_stats=True)
        )
        (downsample): Sequential(
          (0): Conv2d(256, 512, kernel_size=(1, 1), stride=(2, 2), bias=False)
          (1): BatchNorm2d(512, eps=1e-05, momentum=0.1, affine=True, track_running_stats=True)
        )
      )
      (1): BasicBlock(
        (conv1): Conv2d(512, 512, kernel_size=(3, 3), stride=(1, 1), padding=(1, 1), bias=False)
        (bn1): ModuleList(
          (0-2): 3 x BatchNorm2d(512, eps=1e-05, momentum=0.1, affine=True, track_running_stats=True)
        )
        (relu_inp): ReLU(inplace=True)
        (relu): ReLU()
        (conv2): Conv2d(512, 512, kernel_size=(3, 3), stride=(1, 1), padding=(1, 1), bias=False)
        (bn2): ModuleList(
          (0-2): 3 x BatchNorm2d(512, eps=1e-05, momentum=0.1, affine=True, track_running_stats=True)
        )
      )
    )
    (upsample_bottlenecks): ModuleList(
      (0): Conv2d(512, 128, kernel_size=(1, 1), stride=(1, 1), bias=False)
      (1): Conv2d(256, 128, kernel_size=(1, 1), stride=(1, 1), bias=False)
      (2): Conv2d(128, 128, kernel_size=(1, 1), stride=(1, 1), bias=False)
      (3): Conv2d(64, 128, kernel_size=(1, 1), stride=(1, 1), bias=False)
    )
    (upsample_blends): ModuleList(
      (0-4): 5 x _UpsampleBlend(
        (blend_conv): _BNReluConv(
          (norm): BatchNorm2d(128, eps=1e-05, momentum=0.1, affine=True, track_running_stats=True)
          (relu): ReLU(inplace=True)
          (conv): Conv2d(128, 128, kernel_size=(3, 3), stride=(1, 1), padding=(1, 1), bias=False)
        )
      )
    )
  )
  (gnn_model): Learnable_Topology_BGNN(
    (linear_before): Linear(in_features=1024, out_features=512, bias=True)
    (linear_adj): Linear(in_features=512, out_features=256, bias=True)
    (relu): ReLU()
    (GCN_layer1): GSAGE(
      (gc1): GraphSAGEConvolution (512 -> 512)
    )
    (GCN_layer2): GSAGE(
      (gc1): GraphSAGEConvolution (512 -> 512)
    )
    (GCN_layer3): GSAGE(
      (gc1): GraphSAGEConvolution (512 -> 512)
    )
    (linear1): Linear(in_features=512, out_features=512, bias=True)
    (linear2): Linear(in_features=512, out_features=128, bias=True)
  )
  (proj_head): SemsegModel(
    (logits): _BNReluConv(
      (norm): BatchNorm2d(128, eps=1e-05, momentum=0.1, affine=True, track_running_stats=True)
      (relu): ReLU(inplace=True)
      (conv): Conv2d(128, 512, kernel_size=(1, 1), stride=(1, 1))
    )
    (bipartite_graphs): ParameterList(
        (0): Parameter containing: [torch.float32 of size 19x448 (cuda:0)]
        (1): Parameter containing: [torch.float32 of size 64x448 (cuda:0)]
        (2): Parameter containing: [torch.float32 of size 37x448 (cuda:0)]
        (3): Parameter containing: [torch.float32 of size 19x448 (cuda:0)]
        (4): Parameter containing: [torch.float32 of size 26x448 (cuda:0)]
…
